#loc = loc("/home/ubuntu/triton-spirv/python/tutorials/spirv_demo/02-matrix-multiplication.py":5:0)
#loc1 = loc(unknown)
#loc2 = loc("/home/ubuntu/triton-spirv/python/tutorials/spirv_demo/02-matrix-multiplication.py":30:27)
#loc10 = loc("/home/ubuntu/triton-spirv/python/tutorials/spirv_demo/02-matrix-multiplication.py":28:20)
#loc11 = loc("/home/ubuntu/triton-spirv/python/tutorials/spirv_demo/02-matrix-multiplication.py":29:20)
#map = affine_map<(d0, d1) -> (d0, 0)>
#map1 = affine_map<(d0, d1) -> (d0, d1)>
#map2 = affine_map<(d0, d1) -> (0, d1)>
module {
  func.func @matmul_kernel(%arg0: memref<*xf32> {tt.divisibility = 16 : i32} loc("/home/ubuntu/triton-spirv/python/tutorials/spirv_demo/02-matrix-multiplication.py":5:0), %arg1: memref<*xf32> {tt.divisibility = 16 : i32} loc("/home/ubuntu/triton-spirv/python/tutorials/spirv_demo/02-matrix-multiplication.py":5:0), %arg2: memref<*xf32> {tt.divisibility = 16 : i32} loc("/home/ubuntu/triton-spirv/python/tutorials/spirv_demo/02-matrix-multiplication.py":5:0), %arg3: i32 {tt.divisibility = 16 : i32} loc("/home/ubuntu/triton-spirv/python/tutorials/spirv_demo/02-matrix-multiplication.py":5:0), %arg4: i32 {tt.divisibility = 16 : i32} loc("/home/ubuntu/triton-spirv/python/tutorials/spirv_demo/02-matrix-multiplication.py":5:0), %arg5: i32 {tt.divisibility = 16 : i32} loc("/home/ubuntu/triton-spirv/python/tutorials/spirv_demo/02-matrix-multiplication.py":5:0), %arg6: i32 {tt.divisibility = 16 : i32} loc("/home/ubuntu/triton-spirv/python/tutorials/spirv_demo/02-matrix-multiplication.py":5:0), %arg7: i32 {tt.divisibility = 16 : i32} loc("/home/ubuntu/triton-spirv/python/tutorials/spirv_demo/02-matrix-multiplication.py":5:0), %arg8: i32 {tt.divisibility = 16 : i32} loc("/home/ubuntu/triton-spirv/python/tutorials/spirv_demo/02-matrix-multiplication.py":5:0)) {
    %c16 = arith.constant 16 : index loc(#loc1)
    %c1 = arith.constant 1 : index loc(#loc1)
    %c0 = arith.constant 0 : index loc(#loc1)
    %c16_i32 = arith.constant 16 : i32 loc(#loc1)
    %c0_i32 = arith.constant 0 : i32 loc(#loc1)
    %c1_i32 = arith.constant 1 : i32 loc(#loc1)
    %cst = arith.constant 0.000000e+00 : f32 loc(#loc1)
    %0 = tensor.empty() : tensor<16x16xf32> loc(#loc2)
    %1 = linalg.fill ins(%cst : f32) outs(%0 : tensor<16x16xf32>) -> tensor<16x16xf32> loc(#loc1)
    %global_id_x = gpu.global_id  x loc(#loc3)
    %2 = arith.index_cast %global_id_x : index to i32 loc(#loc3)
    %global_id_y = gpu.global_id  y loc(#loc4)
    %3 = arith.index_cast %global_id_y : index to i32 loc(#loc4)
    %4 = arith.muli %3, %c16_i32 : i32 loc(#loc5)
    %5 = arith.muli %2, %c16_i32 : i32 loc(#loc6)
    %6 = arith.index_cast %4 : i32 to index loc(#loc7)
    %7 = arith.index_cast %arg6 : i32 to index loc(#loc7)
    %8 = arith.muli %6, %7 : index loc(#loc7)
    %9 = arith.index_cast %5 : i32 to index loc(#loc8)
    %reinterpret_cast = memref.reinterpret_cast %arg0 to offset: [%8], sizes: [16, 1], strides: [%7, %c0] : memref<*xf32> to memref<16x1xf32, strided<[?, ?], offset: ?>> loc(#loc9)
    %reinterpret_cast_0 = memref.reinterpret_cast %arg1 to offset: [%9], sizes: [1, 16], strides: [%c0, %c1] : memref<*xf32> to memref<1x16xf32, strided<[?, ?], offset: ?>> loc(#loc9)
    %10:5 = scf.for %arg9 = %c0_i32 to %arg5 step %c1_i32 iter_args(%arg10 = %1, %arg11 = %reinterpret_cast, %arg12 = %reinterpret_cast_0, %arg13 = %8, %arg14 = %9) -> (tensor<16x16xf32>, memref<16x1xf32, strided<[?, ?], offset: ?>>, memref<1x16xf32, strided<[?, ?], offset: ?>>, index, index)  : i32 {
      %alloc = memref.alloc() : memref<16x1xf32> loc(#loc10)
      memref.copy %arg11, %alloc : memref<16x1xf32, strided<[?, ?], offset: ?>> to memref<16x1xf32> loc(#loc10)
      %26 = bufferization.to_tensor %alloc restrict writable : memref<16x1xf32> to tensor<16x1xf32> loc(#loc10)
      %alloc_2 = memref.alloc() : memref<1x16xf32> loc(#loc11)
      memref.copy %arg12, %alloc_2 : memref<1x16xf32, strided<[?, ?], offset: ?>> to memref<1x16xf32> loc(#loc11)
      %27 = bufferization.to_tensor %alloc_2 restrict writable : memref<1x16xf32> to tensor<1x16xf32> loc(#loc11)
      %28 = linalg.generic {indexing_maps = [#map, #map1], iterator_types = ["parallel", "parallel"]} ins(%26 : tensor<16x1xf32>) outs(%0 : tensor<16x16xf32>) attrs =  {broadcastDims = array<i64: 1>} {
      ^bb0(%in: f32 loc("/home/ubuntu/triton-spirv/python/tutorials/spirv_demo/02-matrix-multiplication.py":28:20), %out: f32 loc("/home/ubuntu/triton-spirv/python/tutorials/spirv_demo/02-matrix-multiplication.py":30:27)):
        linalg.yield %in : f32 loc(#loc2)
      } -> tensor<16x16xf32> loc(#loc2)
      %29 = linalg.generic {indexing_maps = [#map2, #map1], iterator_types = ["parallel", "parallel"]} ins(%27 : tensor<1x16xf32>) outs(%0 : tensor<16x16xf32>) attrs =  {broadcastDims = array<i64: 0>} {
      ^bb0(%in: f32 loc("/home/ubuntu/triton-spirv/python/tutorials/spirv_demo/02-matrix-multiplication.py":29:20), %out: f32 loc("/home/ubuntu/triton-spirv/python/tutorials/spirv_demo/02-matrix-multiplication.py":30:27)):
        linalg.yield %in : f32 loc(#loc2)
      } -> tensor<16x16xf32> loc(#loc2)
      %30 = linalg.generic {indexing_maps = [#map1, #map1, #map1], iterator_types = ["parallel", "parallel"]} ins(%28, %29 : tensor<16x16xf32>, tensor<16x16xf32>) outs(%28 : tensor<16x16xf32>) {
      ^bb0(%in: f32 loc("/home/ubuntu/triton-spirv/python/tutorials/spirv_demo/02-matrix-multiplication.py":30:27), %in_5: f32 loc("/home/ubuntu/triton-spirv/python/tutorials/spirv_demo/02-matrix-multiplication.py":30:27), %out: f32 loc("/home/ubuntu/triton-spirv/python/tutorials/spirv_demo/02-matrix-multiplication.py":30:27)):
        %35 = arith.mulf %in, %in_5 : f32 loc(#loc2)
        linalg.yield %35 : f32 loc(#loc2)
      } -> tensor<16x16xf32> loc(#loc2)
      %31 = linalg.generic {indexing_maps = [#map1, #map1, #map1], iterator_types = ["parallel", "parallel"]} ins(%arg10, %30 : tensor<16x16xf32>, tensor<16x16xf32>) outs(%arg10 : tensor<16x16xf32>) {
      ^bb0(%in: f32 loc(unknown), %in_5: f32 loc("/home/ubuntu/triton-spirv/python/tutorials/spirv_demo/02-matrix-multiplication.py":30:27), %out: f32 loc(unknown)):
        %35 = arith.addf %in, %in_5 : f32 loc(#loc12)
        linalg.yield %35 : f32 loc(#loc12)
      } -> tensor<16x16xf32> loc(#loc12)
      %32 = arith.addi %arg13, %c1 : index loc(#loc13)
      %reinterpret_cast_3 = memref.reinterpret_cast %arg0 to offset: [%32], sizes: [16, 1], strides: [%7, %c0] : memref<*xf32> to memref<16x1xf32, strided<[?, ?], offset: ?>> loc(#loc13)
      %33 = arith.index_cast %arg7 : i32 to index loc(#loc14)
      %34 = arith.addi %arg14, %33 : index loc(#loc14)
      %reinterpret_cast_4 = memref.reinterpret_cast %arg1 to offset: [%34], sizes: [1, 16], strides: [%c0, %c1] : memref<*xf32> to memref<1x16xf32, strided<[?, ?], offset: ?>> loc(#loc14)
      scf.yield %31, %reinterpret_cast_3, %reinterpret_cast_4, %32, %34 : tensor<16x16xf32>, memref<16x1xf32, strided<[?, ?], offset: ?>>, memref<1x16xf32, strided<[?, ?], offset: ?>>, index, index loc(#loc15)
    } loc(#loc9)
    %11 = arith.index_cast %arg8 : i32 to index loc(#loc16)
    %12 = arith.muli %6, %11 : index loc(#loc16)
    %13 = arith.addi %12, %9 : index loc(#loc17)
    %reinterpret_cast_1 = memref.reinterpret_cast %arg2 to offset: [%13], sizes: [16, 16], strides: [%11, 1] : memref<*xf32> to memref<16x16xf32, strided<[?, 1], offset: ?>> loc(#loc17)
    %14 = arith.addi %6, %c16 : index loc(#loc18)
    %15 = arith.index_cast %arg3 : i32 to index loc(#loc18)
    %16 = arith.minsi %14, %15 : index loc(#loc18)
    %17 = arith.maxsi %16, %6 : index loc(#loc18)
    %18 = arith.subi %17, %6 : index loc(#loc18)
    %19 = arith.addi %9, %c16 : index loc(#loc18)
    %20 = arith.index_cast %arg4 : i32 to index loc(#loc18)
    %21 = arith.minsi %19, %20 : index loc(#loc18)
    %22 = arith.maxsi %21, %9 : index loc(#loc18)
    %23 = arith.subi %22, %9 : index loc(#loc18)
    %24 = arith.minsi %18, %c16 : index loc(#loc18)
    %25 = arith.minsi %23, %c16 : index loc(#loc18)
    %extracted_slice = tensor.extract_slice %10#0[0, 0] [%24, %25] [1, 1] : tensor<16x16xf32> to tensor<?x?xf32> loc(#loc18)
    %subview = memref.subview %reinterpret_cast_1[0, 0] [%24, %25] [1, 1] : memref<16x16xf32, strided<[?, 1], offset: ?>> to memref<?x?xf32, strided<[?, 1], offset: ?>> loc(#loc18)
    bufferization.materialize_in_destination %extracted_slice in writable %subview : (tensor<?x?xf32>, memref<?x?xf32, strided<[?, 1], offset: ?>>) -> () loc(#loc18)
    return loc(#loc)
  } loc(#loc)
} loc(#loc)
#loc3 = loc("/home/ubuntu/triton-spirv/python/tutorials/spirv_demo/02-matrix-multiplication.py":13:26)
#loc4 = loc("/home/ubuntu/triton-spirv/python/tutorials/spirv_demo/02-matrix-multiplication.py":14:26)
#loc5 = loc("/home/ubuntu/triton-spirv/python/tutorials/spirv_demo/02-matrix-multiplication.py":16:21)
#loc6 = loc("/home/ubuntu/triton-spirv/python/tutorials/spirv_demo/02-matrix-multiplication.py":17:21)
#loc7 = loc("/home/ubuntu/triton-spirv/python/tutorials/spirv_demo/02-matrix-multiplication.py":20:21)
#loc8 = loc("/home/ubuntu/triton-spirv/python/tutorials/spirv_demo/02-matrix-multiplication.py":21:21)
#loc9 = loc("/home/ubuntu/triton-spirv/python/tutorials/spirv_demo/02-matrix-multiplication.py":26:19)
#loc12 = loc("/home/ubuntu/triton-spirv/python/tutorials/spirv_demo/02-matrix-multiplication.py":30:23)
#loc13 = loc("/home/ubuntu/triton-spirv/python/tutorials/spirv_demo/02-matrix-multiplication.py":31:18)
#loc14 = loc("/home/ubuntu/triton-spirv/python/tutorials/spirv_demo/02-matrix-multiplication.py":32:18)
#loc15 = loc("/home/ubuntu/triton-spirv/python/tutorials/spirv_demo/02-matrix-multiplication.py":32:8)
#loc16 = loc("/home/ubuntu/triton-spirv/python/tutorials/spirv_demo/02-matrix-multiplication.py":35:21)
#loc17 = loc("/home/ubuntu/triton-spirv/python/tutorials/spirv_demo/02-matrix-multiplication.py":35:51)
#loc18 = loc("/home/ubuntu/triton-spirv/python/tutorials/spirv_demo/02-matrix-multiplication.py":39:21)
