#loc = loc("/home/ubuntu/triton-spirv/python/tutorials/spirv_demo/02-matrix-multiplication.py":5:0)
#loc1 = loc(unknown)
#loc2 = loc("/home/ubuntu/triton-spirv/python/tutorials/spirv_demo/02-matrix-multiplication.py":32:27)
#loc15 = loc("/home/ubuntu/triton-spirv/python/tutorials/spirv_demo/02-matrix-multiplication.py":32:23)
module {
  func.func @matmul_kernel(%arg0: memref<*xf32> {tt.divisibility = 16 : i32} loc("/home/ubuntu/triton-spirv/python/tutorials/spirv_demo/02-matrix-multiplication.py":5:0), %arg1: memref<*xf32> {tt.divisibility = 16 : i32} loc("/home/ubuntu/triton-spirv/python/tutorials/spirv_demo/02-matrix-multiplication.py":5:0), %arg2: memref<*xf32> {tt.divisibility = 16 : i32} loc("/home/ubuntu/triton-spirv/python/tutorials/spirv_demo/02-matrix-multiplication.py":5:0), %arg3: i32 {tt.divisibility = 16 : i32} loc("/home/ubuntu/triton-spirv/python/tutorials/spirv_demo/02-matrix-multiplication.py":5:0), %arg4: i32 {tt.divisibility = 16 : i32} loc("/home/ubuntu/triton-spirv/python/tutorials/spirv_demo/02-matrix-multiplication.py":5:0), %arg5: i32 {tt.divisibility = 16 : i32} loc("/home/ubuntu/triton-spirv/python/tutorials/spirv_demo/02-matrix-multiplication.py":5:0), %arg6: i32 {tt.divisibility = 16 : i32} loc("/home/ubuntu/triton-spirv/python/tutorials/spirv_demo/02-matrix-multiplication.py":5:0), %arg7: i32 {tt.divisibility = 16 : i32} loc("/home/ubuntu/triton-spirv/python/tutorials/spirv_demo/02-matrix-multiplication.py":5:0), %arg8: i32 {tt.divisibility = 16 : i32} loc("/home/ubuntu/triton-spirv/python/tutorials/spirv_demo/02-matrix-multiplication.py":5:0)) {
    %c16 = arith.constant 16 : index loc(#loc1)
    %c16_i32 = arith.constant 16 : i32 loc(#loc1)
    %c0_i32 = arith.constant 0 : i32 loc(#loc1)
    %c1_i32 = arith.constant 1 : i32 loc(#loc1)
    %cst = arith.constant 0.000000e+00 : f32 loc(#loc1)
    %alloc = memref.alloc() {alignment = 64 : i64} : memref<16x16xf32> loc(#loc2)
    %alloc_0 = memref.alloc() {alignment = 64 : i64} : memref<16x16xf32> loc(#loc1)
    affine.for %arg9 loc(unknown) = 0 to 16 {
      affine.for %arg10 loc(unknown) = 0 to 16 {
        affine.store %cst, %alloc_0[%arg9, %arg10] : memref<16x16xf32> loc(#loc1)
      } loc(#loc1)
    } loc(#loc1)
    %global_id_x = gpu.global_id  x loc(#loc3)
    %0 = arith.index_cast %global_id_x : index to i32 loc(#loc3)
    %global_id_y = gpu.global_id  y loc(#loc4)
    %1 = arith.index_cast %global_id_y : index to i32 loc(#loc4)
    %2 = arith.muli %1, %c16_i32 : i32 loc(#loc5)
    %3 = arith.muli %0, %c16_i32 : i32 loc(#loc6)
    %4 = arith.index_cast %2 : i32 to index loc(#loc7)
    %5 = arith.index_cast %arg6 : i32 to index loc(#loc7)
    %6 = arith.muli %4, %5 : index loc(#loc7)
    %7 = arith.index_cast %3 : i32 to index loc(#loc8)
    %alloc_1 = memref.alloc() : memref<16x1xf32> loc(#loc9)
    %alloc_2 = memref.alloc() : memref<1x16xf32> loc(#loc10)
    %alloc_3 = memref.alloc() {alignment = 64 : i64} : memref<16x16xf32> loc(#loc2)
    scf.for %arg9 = %c0_i32 to %arg5 step %c1_i32  : i32 {
      %23 = arith.index_cast %arg9 : i32 to index loc(#loc12)
      %24 = arith.addi %6, %23 : index loc(#loc12)
      %reinterpret_cast_5 = memref.reinterpret_cast %arg0 to offset: [%24], sizes: [16, 1], strides: [%5, 1] : memref<*xf32> to memref<16x1xf32, strided<[?, 1], offset: ?>> loc(#loc12)
      %25 = arith.muli %arg9, %arg7 : i32 loc(#loc13)
      %26 = arith.index_cast %25 : i32 to index loc(#loc14)
      %27 = arith.addi %26, %7 : index loc(#loc14)
      %reinterpret_cast_6 = memref.reinterpret_cast %arg1 to offset: [%27], sizes: [1, 16], strides: [16, 1] : memref<*xf32> to memref<1x16xf32, strided<[16, 1], offset: ?>> loc(#loc14)
      memref.copy %reinterpret_cast_5, %alloc_1 : memref<16x1xf32, strided<[?, 1], offset: ?>> to memref<16x1xf32> loc(#loc9)
      memref.copy %reinterpret_cast_6, %alloc_2 : memref<1x16xf32, strided<[16, 1], offset: ?>> to memref<1x16xf32> loc(#loc10)
      affine.for %arg10 loc("/home/ubuntu/triton-spirv/python/tutorials/spirv_demo/02-matrix-multiplication.py":32:27) = 0 to 16 {
        affine.for %arg11 loc("/home/ubuntu/triton-spirv/python/tutorials/spirv_demo/02-matrix-multiplication.py":32:27) = 0 to 16 {
          %28 = affine.load %alloc_1[%arg10, 0] : memref<16x1xf32> loc(#loc2)
          affine.store %28, %alloc_3[%arg10, %arg11] : memref<16x16xf32> loc(#loc2)
        } loc(#loc2)
      } loc(#loc2)
      affine.for %arg10 loc("/home/ubuntu/triton-spirv/python/tutorials/spirv_demo/02-matrix-multiplication.py":32:27) = 0 to 16 {
        affine.for %arg11 loc("/home/ubuntu/triton-spirv/python/tutorials/spirv_demo/02-matrix-multiplication.py":32:27) = 0 to 16 {
          %28 = affine.load %alloc_2[0, %arg11] : memref<1x16xf32> loc(#loc2)
          affine.store %28, %alloc[%arg10, %arg11] : memref<16x16xf32> loc(#loc2)
        } loc(#loc2)
      } loc(#loc2)
      affine.for %arg10 loc("/home/ubuntu/triton-spirv/python/tutorials/spirv_demo/02-matrix-multiplication.py":32:27) = 0 to 16 {
        affine.for %arg11 loc("/home/ubuntu/triton-spirv/python/tutorials/spirv_demo/02-matrix-multiplication.py":32:27) = 0 to 16 {
          %28 = affine.load %alloc_3[%arg10, %arg11] : memref<16x16xf32> loc(#loc2)
          %29 = affine.load %alloc[%arg10, %arg11] : memref<16x16xf32> loc(#loc2)
          %30 = arith.mulf %28, %29 : f32 loc(#loc2)
          affine.store %30, %alloc_3[%arg10, %arg11] : memref<16x16xf32> loc(#loc2)
        } loc(#loc2)
      } loc(#loc2)
      affine.for %arg10 loc("/home/ubuntu/triton-spirv/python/tutorials/spirv_demo/02-matrix-multiplication.py":32:23) = 0 to 16 {
        affine.for %arg11 loc("/home/ubuntu/triton-spirv/python/tutorials/spirv_demo/02-matrix-multiplication.py":32:23) = 0 to 16 {
          %28 = affine.load %alloc_0[%arg10, %arg11] : memref<16x16xf32> loc(#loc15)
          %29 = affine.load %alloc_3[%arg10, %arg11] : memref<16x16xf32> loc(#loc15)
          %30 = arith.addf %28, %29 : f32 loc(#loc15)
          affine.store %30, %alloc_0[%arg10, %arg11] : memref<16x16xf32> loc(#loc15)
        } loc(#loc15)
      } loc(#loc15)
    } loc(#loc11)
    %8 = arith.index_cast %arg8 : i32 to index loc(#loc16)
    %9 = arith.muli %4, %8 : index loc(#loc16)
    %10 = arith.addi %9, %7 : index loc(#loc17)
    %reinterpret_cast = memref.reinterpret_cast %arg2 to offset: [%10], sizes: [16, 16], strides: [%8, 1] : memref<*xf32> to memref<16x16xf32, strided<[?, 1], offset: ?>> loc(#loc17)
    %11 = arith.addi %4, %c16 : index loc(#loc18)
    %12 = arith.index_cast %arg3 : i32 to index loc(#loc18)
    %13 = arith.minsi %11, %12 : index loc(#loc18)
    %14 = arith.maxsi %13, %4 : index loc(#loc18)
    %15 = arith.subi %14, %4 : index loc(#loc18)
    %16 = arith.addi %7, %c16 : index loc(#loc18)
    %17 = arith.index_cast %arg4 : i32 to index loc(#loc18)
    %18 = arith.minsi %16, %17 : index loc(#loc18)
    %19 = arith.maxsi %18, %7 : index loc(#loc18)
    %20 = arith.subi %19, %7 : index loc(#loc18)
    %21 = arith.minsi %15, %c16 : index loc(#loc18)
    %22 = arith.minsi %20, %c16 : index loc(#loc18)
    %subview = memref.subview %alloc_0[0, 0] [%21, %22] [1, 1] : memref<16x16xf32> to memref<?x?xf32, strided<[16, 1]>> loc(#loc18)
    %subview_4 = memref.subview %reinterpret_cast[0, 0] [%21, %22] [1, 1] : memref<16x16xf32, strided<[?, 1], offset: ?>> to memref<?x?xf32, strided<[?, 1], offset: ?>> loc(#loc18)
    memref.copy %subview, %subview_4 : memref<?x?xf32, strided<[16, 1]>> to memref<?x?xf32, strided<[?, 1], offset: ?>> loc(#loc18)
    return loc(#loc)
  } loc(#loc)
} loc(#loc)
#loc3 = loc("/home/ubuntu/triton-spirv/python/tutorials/spirv_demo/02-matrix-multiplication.py":13:26)
#loc4 = loc("/home/ubuntu/triton-spirv/python/tutorials/spirv_demo/02-matrix-multiplication.py":14:26)
#loc5 = loc("/home/ubuntu/triton-spirv/python/tutorials/spirv_demo/02-matrix-multiplication.py":16:21)
#loc6 = loc("/home/ubuntu/triton-spirv/python/tutorials/spirv_demo/02-matrix-multiplication.py":17:21)
#loc7 = loc("/home/ubuntu/triton-spirv/python/tutorials/spirv_demo/02-matrix-multiplication.py":20:21)
#loc8 = loc("/home/ubuntu/triton-spirv/python/tutorials/spirv_demo/02-matrix-multiplication.py":21:21)
#loc9 = loc("/home/ubuntu/triton-spirv/python/tutorials/spirv_demo/02-matrix-multiplication.py":30:20)
#loc10 = loc("/home/ubuntu/triton-spirv/python/tutorials/spirv_demo/02-matrix-multiplication.py":31:20)
#loc11 = loc("/home/ubuntu/triton-spirv/python/tutorials/spirv_demo/02-matrix-multiplication.py":26:19)
#loc12 = loc("/home/ubuntu/triton-spirv/python/tutorials/spirv_demo/02-matrix-multiplication.py":27:31)
#loc13 = loc("/home/ubuntu/triton-spirv/python/tutorials/spirv_demo/02-matrix-multiplication.py":28:35)
#loc14 = loc("/home/ubuntu/triton-spirv/python/tutorials/spirv_demo/02-matrix-multiplication.py":28:31)
#loc16 = loc("/home/ubuntu/triton-spirv/python/tutorials/spirv_demo/02-matrix-multiplication.py":35:21)
#loc17 = loc("/home/ubuntu/triton-spirv/python/tutorials/spirv_demo/02-matrix-multiplication.py":35:51)
#loc18 = loc("/home/ubuntu/triton-spirv/python/tutorials/spirv_demo/02-matrix-multiplication.py":39:21)
