#loc = loc("/home/ubuntu/triton-spirv/python/tutorials/spirv_demo/02-matrix-multiplication.py":5:0)
#loc2 = loc("/home/ubuntu/triton-spirv/python/tutorials/spirv_demo/02-matrix-multiplication.py":32:27)
#loc13 = loc("/home/ubuntu/triton-spirv/python/tutorials/spirv_demo/02-matrix-multiplication.py":30:20)
#loc14 = loc("/home/ubuntu/triton-spirv/python/tutorials/spirv_demo/02-matrix-multiplication.py":31:20)
#loc16 = loc("/home/ubuntu/triton-spirv/python/tutorials/spirv_demo/02-matrix-multiplication.py":23:27)
#map = affine_map<(d0, d1) -> (d0, 0)>
#map1 = affine_map<(d0, d1) -> (d0, d1)>
#map2 = affine_map<(d0, d1) -> (0, d1)>
module {
  func.func @matmul_kernel(%arg0: memref<*xf32> {tt.divisibility = 16 : i32} loc("/home/ubuntu/triton-spirv/python/tutorials/spirv_demo/02-matrix-multiplication.py":5:0), %arg1: memref<*xf32> {tt.divisibility = 16 : i32} loc("/home/ubuntu/triton-spirv/python/tutorials/spirv_demo/02-matrix-multiplication.py":5:0), %arg2: memref<*xf32> {tt.divisibility = 16 : i32} loc("/home/ubuntu/triton-spirv/python/tutorials/spirv_demo/02-matrix-multiplication.py":5:0), %arg3: i32 {tt.divisibility = 16 : i32} loc("/home/ubuntu/triton-spirv/python/tutorials/spirv_demo/02-matrix-multiplication.py":5:0), %arg4: i32 {tt.divisibility = 16 : i32} loc("/home/ubuntu/triton-spirv/python/tutorials/spirv_demo/02-matrix-multiplication.py":5:0), %arg5: i32 {tt.divisibility = 16 : i32} loc("/home/ubuntu/triton-spirv/python/tutorials/spirv_demo/02-matrix-multiplication.py":5:0), %arg6: i32 {tt.divisibility = 16 : i32} loc("/home/ubuntu/triton-spirv/python/tutorials/spirv_demo/02-matrix-multiplication.py":5:0), %arg7: i32 {tt.divisibility = 16 : i32} loc("/home/ubuntu/triton-spirv/python/tutorials/spirv_demo/02-matrix-multiplication.py":5:0), %arg8: i32 {tt.divisibility = 16 : i32} loc("/home/ubuntu/triton-spirv/python/tutorials/spirv_demo/02-matrix-multiplication.py":5:0)) {
    %c16 = arith.constant 16 : index loc(#loc1)
    %c16_i32 = arith.constant 16 : i32 loc(#loc1)
    %c0_i32 = arith.constant 0 : i32 loc(#loc1)
    %c1_i32 = arith.constant 1 : i32 loc(#loc1)
    %cst = arith.constant 0.000000e+00 : f32 loc(#loc1)
    %0 = tensor.empty() : tensor<16x16xf32> loc(#loc2)
    %1 = linalg.fill ins(%cst : f32) outs(%0 : tensor<16x16xf32>) -> tensor<16x16xf32> loc(#loc1)
    %global_id_x = gpu.global_id  x loc(#loc3)
    %2 = arith.index_cast %global_id_x : index to i32 loc(#loc3)
    %global_id_y = gpu.global_id  y loc(#loc4)
    %3 = arith.index_cast %global_id_y : index to i32 loc(#loc4)
    %4 = arith.muli %3, %c16_i32 : i32 loc(#loc5)
    %5 = arith.muli %2, %c16_i32 : i32 loc(#loc6)
    %6 = arith.index_cast %4 : i32 to index loc(#loc7)
    %7 = arith.index_cast %arg6 : i32 to index loc(#loc7)
    %8 = arith.muli %6, %7 : index loc(#loc7)
    %9 = arith.index_cast %5 : i32 to index loc(#loc8)
    %10 = scf.for %arg9 = %c0_i32 to %arg5 step %c1_i32 iter_args(%arg10 = %1) -> (tensor<16x16xf32>)  : i32 {
      %26 = arith.index_cast %arg9 : i32 to index loc(#loc10)
      %27 = arith.addi %8, %26 : index loc(#loc10)
      %reinterpret_cast_0 = memref.reinterpret_cast %arg0 to offset: [%27], sizes: [16, 1], strides: [%7, 1] : memref<*xf32> to memref<16x1xf32, strided<[?, 1], offset: ?>> loc(#loc10)
      %28 = arith.muli %arg9, %arg7 : i32 loc(#loc11)
      %29 = arith.index_cast %28 : i32 to index loc(#loc12)
      %30 = arith.addi %29, %9 : index loc(#loc12)
      %reinterpret_cast_1 = memref.reinterpret_cast %arg1 to offset: [%30], sizes: [1, 16], strides: [16, 1] : memref<*xf32> to memref<1x16xf32, strided<[16, 1], offset: ?>> loc(#loc12)
      %alloc = memref.alloc() : memref<16x1xf32> loc(#loc13)
      memref.copy %reinterpret_cast_0, %alloc : memref<16x1xf32, strided<[?, 1], offset: ?>> to memref<16x1xf32> loc(#loc13)
      %31 = bufferization.to_tensor %alloc restrict writable : memref<16x1xf32> to tensor<16x1xf32> loc(#loc13)
      %alloc_2 = memref.alloc() : memref<1x16xf32> loc(#loc14)
      memref.copy %reinterpret_cast_1, %alloc_2 : memref<1x16xf32, strided<[16, 1], offset: ?>> to memref<1x16xf32> loc(#loc14)
      %32 = bufferization.to_tensor %alloc_2 restrict writable : memref<1x16xf32> to tensor<1x16xf32> loc(#loc14)
      %33 = linalg.generic {indexing_maps = [#map, #map1], iterator_types = ["parallel", "parallel"]} ins(%31 : tensor<16x1xf32>) outs(%0 : tensor<16x16xf32>) attrs =  {broadcastDims = array<i64: 1>} {
      ^bb0(%in: f32 loc("/home/ubuntu/triton-spirv/python/tutorials/spirv_demo/02-matrix-multiplication.py":30:20), %out: f32 loc("/home/ubuntu/triton-spirv/python/tutorials/spirv_demo/02-matrix-multiplication.py":32:27)):
        linalg.yield %in : f32 loc(#loc2)
      } -> tensor<16x16xf32> loc(#loc2)
      %34 = linalg.generic {indexing_maps = [#map2, #map1], iterator_types = ["parallel", "parallel"]} ins(%32 : tensor<1x16xf32>) outs(%0 : tensor<16x16xf32>) attrs =  {broadcastDims = array<i64: 0>} {
      ^bb0(%in: f32 loc("/home/ubuntu/triton-spirv/python/tutorials/spirv_demo/02-matrix-multiplication.py":31:20), %out: f32 loc("/home/ubuntu/triton-spirv/python/tutorials/spirv_demo/02-matrix-multiplication.py":32:27)):
        linalg.yield %in : f32 loc(#loc2)
      } -> tensor<16x16xf32> loc(#loc2)
      %35 = linalg.generic {indexing_maps = [#map1, #map1, #map1], iterator_types = ["parallel", "parallel"]} ins(%33, %34 : tensor<16x16xf32>, tensor<16x16xf32>) outs(%33 : tensor<16x16xf32>) {
      ^bb0(%in: f32 loc("/home/ubuntu/triton-spirv/python/tutorials/spirv_demo/02-matrix-multiplication.py":32:27), %in_3: f32 loc("/home/ubuntu/triton-spirv/python/tutorials/spirv_demo/02-matrix-multiplication.py":32:27), %out: f32 loc("/home/ubuntu/triton-spirv/python/tutorials/spirv_demo/02-matrix-multiplication.py":32:27)):
        %37 = arith.mulf %in, %in_3 : f32 loc(#loc2)
        linalg.yield %37 : f32 loc(#loc2)
      } -> tensor<16x16xf32> loc(#loc2)
      %36 = linalg.generic {indexing_maps = [#map1, #map1, #map1], iterator_types = ["parallel", "parallel"]} ins(%arg10, %35 : tensor<16x16xf32>, tensor<16x16xf32>) outs(%arg10 : tensor<16x16xf32>) {
      ^bb0(%in: f32 loc("/home/ubuntu/triton-spirv/python/tutorials/spirv_demo/02-matrix-multiplication.py":23:27), %in_3: f32 loc("/home/ubuntu/triton-spirv/python/tutorials/spirv_demo/02-matrix-multiplication.py":32:27), %out: f32 loc("/home/ubuntu/triton-spirv/python/tutorials/spirv_demo/02-matrix-multiplication.py":23:27)):
        %37 = arith.addf %in, %in_3 : f32 loc(#loc15)
        linalg.yield %37 : f32 loc(#loc15)
      } -> tensor<16x16xf32> loc(#loc15)
      scf.yield %36 : tensor<16x16xf32> loc(#loc17)
    } loc(#loc9)
    %11 = arith.index_cast %arg8 : i32 to index loc(#loc18)
    %12 = arith.muli %6, %11 : index loc(#loc18)
    %13 = arith.addi %12, %9 : index loc(#loc19)
    %reinterpret_cast = memref.reinterpret_cast %arg2 to offset: [%13], sizes: [16, 16], strides: [%11, 1] : memref<*xf32> to memref<16x16xf32, strided<[?, 1], offset: ?>> loc(#loc19)
    %14 = arith.addi %6, %c16 : index loc(#loc20)
    %15 = arith.index_cast %arg3 : i32 to index loc(#loc20)
    %16 = arith.minsi %14, %15 : index loc(#loc20)
    %17 = arith.maxsi %16, %6 : index loc(#loc20)
    %18 = arith.subi %17, %6 : index loc(#loc20)
    %19 = arith.addi %9, %c16 : index loc(#loc20)
    %20 = arith.index_cast %arg4 : i32 to index loc(#loc20)
    %21 = arith.minsi %19, %20 : index loc(#loc20)
    %22 = arith.maxsi %21, %9 : index loc(#loc20)
    %23 = arith.subi %22, %9 : index loc(#loc20)
    %24 = arith.minsi %18, %c16 : index loc(#loc20)
    %25 = arith.minsi %23, %c16 : index loc(#loc20)
    %extracted_slice = tensor.extract_slice %10[0, 0] [%24, %25] [1, 1] : tensor<16x16xf32> to tensor<?x?xf32> loc(#loc20)
    %subview = memref.subview %reinterpret_cast[0, 0] [%24, %25] [1, 1] : memref<16x16xf32, strided<[?, 1], offset: ?>> to memref<?x?xf32, strided<[?, 1], offset: ?>> loc(#loc20)
    bufferization.materialize_in_destination %extracted_slice in writable %subview : (tensor<?x?xf32>, memref<?x?xf32, strided<[?, 1], offset: ?>>) -> () loc(#loc20)
    return loc(#loc)
  } loc(#loc)
} loc(#loc)
#loc1 = loc(unknown)
#loc3 = loc("/home/ubuntu/triton-spirv/python/tutorials/spirv_demo/02-matrix-multiplication.py":13:26)
#loc4 = loc("/home/ubuntu/triton-spirv/python/tutorials/spirv_demo/02-matrix-multiplication.py":14:26)
#loc5 = loc("/home/ubuntu/triton-spirv/python/tutorials/spirv_demo/02-matrix-multiplication.py":16:21)
#loc6 = loc("/home/ubuntu/triton-spirv/python/tutorials/spirv_demo/02-matrix-multiplication.py":17:21)
#loc7 = loc("/home/ubuntu/triton-spirv/python/tutorials/spirv_demo/02-matrix-multiplication.py":20:21)
#loc8 = loc("/home/ubuntu/triton-spirv/python/tutorials/spirv_demo/02-matrix-multiplication.py":21:21)
#loc9 = loc("/home/ubuntu/triton-spirv/python/tutorials/spirv_demo/02-matrix-multiplication.py":26:19)
#loc10 = loc("/home/ubuntu/triton-spirv/python/tutorials/spirv_demo/02-matrix-multiplication.py":27:31)
#loc11 = loc("/home/ubuntu/triton-spirv/python/tutorials/spirv_demo/02-matrix-multiplication.py":28:35)
#loc12 = loc("/home/ubuntu/triton-spirv/python/tutorials/spirv_demo/02-matrix-multiplication.py":28:31)
#loc15 = loc("/home/ubuntu/triton-spirv/python/tutorials/spirv_demo/02-matrix-multiplication.py":32:23)
#loc17 = loc("/home/ubuntu/triton-spirv/python/tutorials/spirv_demo/02-matrix-multiplication.py":32:8)
#loc18 = loc("/home/ubuntu/triton-spirv/python/tutorials/spirv_demo/02-matrix-multiplication.py":35:21)
#loc19 = loc("/home/ubuntu/triton-spirv/python/tutorials/spirv_demo/02-matrix-multiplication.py":35:51)
#loc20 = loc("/home/ubuntu/triton-spirv/python/tutorials/spirv_demo/02-matrix-multiplication.py":39:21)
